mnist_cnn_quantized.tflite (tflite, 216076 bytes, 7 tensors)

conv2d_1/bias f4 [16]
00000000: 9877 d1ba 34cb 94bb 52c7 31be b169 15be
00000010: 346b a0bc d4f2 7bbc aaba fdbd d143 40bc
00000020: e1f7 96bd 681a 25bc 58d8 c4bd b865 0d3b
00000030: 9186 4d3b ed93 45be d223 f9bd aff0 0f3c
-0.0015981076 -0.0045408253 -0.17361191 -0.145911 -0.019582368 -0.015377719 -0.12389119 -0.011734919
-0.07371498 -0.0100770965 -0.09611577 0.0021575522 0.0031360725 -0.1929471 -0.12165035 0.008785411

conv2d/bias f4 [16]
00000000: 2afb b23c 0ec8 073c 69fc 50bd aede a1bd
00000010: ce4b 9fbc 2f47 053d 3dcb ca3c 4f5c 0b3c
00000020: 7b50 14bd c122 89bd 31c7 1abc 26d3 a8bd
00000030: 38f2 3fbd d8e8 7ebd cb03 783c e427 c4bd
0.02184828 0.008287443 -0.051021967 -0.07903801 -0.019445326 0.03253859 0.024755115 0.008505895
-0.036209565 -0.06696082 -0.009446905 -0.08243398 -0.046861857 -0.062233776 0.015137623 -0.09577921

model/dense/MatMul f4 [64, 784]
00000000: 03fc 05bd c3d8 1b3e 69df 0a3d 67df f53d
00000010: e10b 5b3d b898 52bd c7c9 ffbd 8909 9abd
00000020: cfa4 0c3e 5027 cb3c 19fa 8d3d abd6 2d3e
00000030: f88b 733c 41e7 a53d 965a 17be 83ff 84bd
00000040: 866c 0e3b 0753 3d3e c876 cabd bc43 ca3d
00000050: 070f 823e 37ed 42be 7e95 e63d 812a 58bb
00000060: 864e 64be 5ee5 8e3d f128 613e a5bc 1f3e
00000070: 78ec 3f3d 6c52 a5bd cbff 933d a4d3 75bd
00000080: 5c85 36be 9b13 2d3e a8be d5bd 09aa 6c3d
00000090: e649 a93d e13a 823d d8c4 3e3e 63ea 083e
000000a0: d8a8 96be 7220 893d 7ad3 ac3d 57ce 823c
000000b0: 7ae3 ab3d 2e97 933d de57 edbd f4ad 42be
000000c0: 5c8a ecbd c94d 443d c710 e03d ec31 1ebd
000000d0: c736 723d 2a77 663e 8d2d 80bd 1d2c 323e
000000e0: 9dee 6c3c 60c0 3d3d 6b79 6b3d f007 7abd
000000f0: 9c5b 973d d395 03bd 07fb bf3b 336a 5a3d
00000100: 924a fa3b 1c00 183e f7ee 05be 0ce5 b63d
00000110: 9db2 573e 97dc 373e 351e a43c 6713 133e
00000120: c533 b03d 971f 833d 9a7f 153e b2c5 ab3d
00000130: c3a4 a73c c423 41bc 6871 e03c 050f bebd
00000140: 08c1 e03c a983 e33d d88c 2a3e 76fd dabc
00000150: 6f10 303d 25ee 513e 910e 523c 5042 5b3e
00000160: d41a 2cbc abab fabd c97d 923d a60d 86bd
00000170: 2128 47be 90f3 053d f30e 3e3e ddec 0abd
00000180: 4da6 0dbc 286d 523e d6c7 fb3d 7a02 3abd
00000190: 57f5 61bd 31ab 733e 23b6 adbb 05e0 babd
000001a0: dc5b 093c c63d 743e e5a1 55bd 852e 883c
000001b0: 80bc 903e 6f7f 20be f5fa 873d 84c7 82bd
000001c0: 7821 8dbe 7ef7 4c3e 6bcf b13d 9406 64be
000001d0: 0284 4a3d 9b8a cd3d 69c1 11be 3842 693d
000001e0: c84a 4ebd 5854 afbd 1452 883d d477 2e3d
000001f0: b8d2 983d 64e7 5dbe 954c 18bd 54f4 07bd
00000200: ad08 8c3c bdd9 813d 40b6 b5bd b032 ba3d
00000210: 0a51 963d 1a36 c0bd 8247 62bd a69c 213e
00000220: 7d88 d5bd 099d 3eba 3ac3 f1bc adb7 7c3d
00000230: ddd8 69bd e0c5 af3c a8bf 42be a112 08bd
00000240: de4d b7bd b69f 78bd 1827 24bd f210 453a
00000250: d28d 46bd c617 59bd 44a8 b53d 2f4b 583e
00000260: a18e 043e 8ecd 3e3d 7ef1 f4bd dfb4 253e
00000270: 25d7 b7bd 90ad 38b9 53d8 97bd 94bf eb3d
00000280: 45b3 513c 370b b53c 89d0 b6bd 5891 edbc
00000290: cc74 fcbd 93b0 eebb 205a 4c3c 5917 353e
000002a0: edc8 9abd b8e1 8a3d 694f d0bb 5bc0 f6bd
000002b0: 81ff 083d 8381 e1bc 3b9e 40be 9868 e23d
000002c0: a285 abbb 614b 303e 1349 d7bc 133b d83a
000002d0: 5475 b5bc d9cb 4e3d aaa1 42bd 6164 443d
000002e0: 607b 363d 60a0 903e 29ee 06be d57e 00bd
000002f0: 6e2c 30be 0389 89bd 82e6 75bd 8097 a13d
00000300: 37aa a23c 33e4 143e 1d89 433d ad84 333d
00000310: 6aae bc3d b4fb 47bd 5ae5 763d 4969 cb3d
00000320: f977 613d b545 913e efd3 6b3d 7b28 74bd
00000330: 9802 15bc 083e d8bd a414 373e 1257 683e
00000340: 547f 18be 2ca9 3c3d d47e c73d 7b6c b5bd
00000350: 926f 993e 46ad 1fbe 7ed5 b83c 0656 edbc
00000360: d9db 743d be5f 033d 7cb4 5e3d efee 01be
00000370: 883c 4f3e 7b2d 623d d8be a43e 3145 0f3e
00000380: a7d5 17be bd68 93bd bb3a 97bd d203 a7bc
00000390: 2e02 ad3e dccf 1d3d ad21 04bd 6e6a c2bd
000003a0: 4c13 e7bd a706 1cbe 9876 4c3d 65ec 71bd
000003b0: 9f3c acbd 8b66 25bc 8c03 10be bcc2 f8bc
000003c0: ecff dc3c 6575 8dbd 00b3 2fbd f344 21be
000003d0: a70a 2ebd ae38 9aba b2fd a1bc d564 533e
000003e0: bf25 4d3e e828 52bd bbfe 533d f237 27be
000003f0: e3d4 a33b ccfb e2bc f8ed 593c 180e bdbd
-0.03271104 0.15219407 0.033904467 0.12005501 0.053478125 -0.051415175 -0.12489658 -0.0752135
0.13734744 0.02479902 0.06932468 0.1697642 0.014864914 0.08100749 -0.1478065 -0.064940475
0.0021732165 0.18488704 -0.09885937 0.098762006 0.2540209 -0.19035803 0.11258982 -0.0032984319
-0.2229558 0.06977342 0.21988274 0.15599306 0.046856374 -0.08072361 0.07226523 -0.06001629
-0.1782431 0.1690201 -0.104367554 0.057779346 0.08266048 0.063588865 0.18629777 0.13370661
-0.29425693 0.066956416 0.084387735 0.015967531 0.08392997 0.072065696 -0.11589025 -0.1901167
-0.115498275 0.047925744 0.109407 -0.038621828 0.05913427 0.22506395 -0.06258688 0.1739964
0.014461187 0.04632604 0.05748884 -0.061042726 0.0739052 -0.032125305 0.005858782 0.053323936
0.007638284 0.14843792 -0.13079439 0.08930406 0.2106423 0.17955242 0.020033935 0.1436287
0.08603624 0.0640251 0.14599457 0.08387317 0.020464307 -0.011788312 0.027397826 -0.092802085
0.027435794 0.111090966 0.1665529 -0.026732188 0.042984422 0.20501001 0.012820856 0.21412015
-0.010504443 -0.12239774 0.07152898 -0.06545572 -0.19448902 0.032702982 0.1856039 -0.033917297
-0.008645606 0.20549452 0.12293975 -0.045412518 -0.055165615 0.23795773 -0.0053012534 -0.091247596
0.008383717 0.2385169 -0.052156348 0.016623745 0.28268814 -0.15673612 0.06639663 -0.06385711
-0.27564597 0.20016286 0.0868214 -0.22268134 0.0494423 0.100362025 -0.14233936 0.056947917
-0.050364286 -0.08561009 0.0665628 0.042594746 0.074620664 -0.216703 -0.03718241 -0.033191994
0.01709398 0.063403584 -0.08872652 0.09091699 0.07339676 -0.09385319 -0.055243976 0.15782413
-0.10426424 -0.0007271325 -0.029512037 0.061698604 -0.057091583 0.021456659 -0.19018424 -0.03322089
-0.08950399 -0.060699187 -0.040076345 0.00075174787 -0.048475094 -0.053001188 0.08869985 0.2112243
0.12945034 0.04658275 -0.119601235 0.16182278 -0.089765824 -0.00017612264 -0.074143074 0.1151115
0.012799089 0.022100074 -0.08926494 -0.02899997 -0.12326965 -0.007284233 0.012472659 0.17684688
-0.07557855 0.06781334 -0.0063571227 -0.12048408 0.033446793 -0.027527576 -0.1881036 0.11055106
-0.005234436 0.17216255 -0.026279962 0.0016497098 -0.022150673 0.050487373 -0.047517456 0.04794729
0.044551253 0.28247356 -0.13176788 -0.031370956 -0.17204449 -0.06715586 -0.060034283 0.078902245
0.019856555 0.14540176 0.047738183 0.0438277 0.09212954 -0.048824027 0.06027732 0.09932191
0.055046055 0.28373495 0.057575163 -0.059608918 -0.009094857 -0.105587065 0.17878968 0.22689465
-0.14892322 0.046059772 0.097409874 -0.08858582 0.29967934 -0.15593442 0.022562739 -0.028971683
0.059779976 0.03207373 0.054371342 -0.12688802 0.20237935 0.055219155 0.32176852 0.13991238
-0.14827596 -0.071977116 -0.07384249 -0.020387564 0.33790725 0.03852831 -0.03225868 -0.09492956
-0.112829775 -0.15236913 0.049917787 -0.059063334 -0.0841 -0.010095249 -0.14063853 -0.030366294
0.026977502 -0.06907157 -0.042895317 -0.15748958 -0.042490628 -0.001176616 -0.019774292 0.20643933
0.2003393 -0.051308542 0.0517566 -0.16329935 0.0049997433 -0.027707957 0.013301365 -0.09231204

model/dense_1/MatMul f4 [10, 64]
00000000: 9667 ccbe 5478 5cbe 3f98 903e e255 fbbc
00000010: 453b 363e ea9b a9be 5bb9 dd3e 3795 b2bd
00000020: 1a00 a03e 9ab2 e23c 63dd c33d ed09 a33e
00000030: 0c76 babd 8f84 adbe 3ad5 3b3e 4146 aa3d
00000040: 7d34 b7be d58d fdbd 0c49 a23e f0e7 8dbe
00000050: 373b 563e d365 20be 7597 c5be 68e8 54be
00000060: d4aa 4e3e d454 09bd 4c13 923e 0f58 b3be
00000070: 0cc1 95be f372 973e a3d7 303e fd00 eb3e
00000080: 863d 18be 01d3 febc 28b1 27be f44d e6bc
00000090: 9bf1 a03e 50b8 a93e 1e45 cd3d d4eb 8dbe
000000a0: 3fdf 3f3d d844 cfbe 1b36 ec3e ec67 013f
000000b0: 19c2 43be b057 85be e395 413e a0f5 323e
000000c0: 226c ad3e 87b2 ab3e 7569 563e 9e04 2d3e
000000d0: 7cfc 61bd 878f eebc e73e dc3e a6ec d43d
000000e0: 795e 953e 32d6 4c3e 9b02 673e 24dd 11bd
000000f0: 34c0 e03d 27d0 47be d692 65be 94c6 a53e
00000100: ce1a 54bd e38c 403e 970c 333e e776 8ebe
00000110: 0291 26be ab3c 393c d4a2 c3be dcfb 8dbe
00000120: 6034 2dbf cc85 8f3e bd02 f3be afd7 8c3e
00000130: ebcf 96bd ac24 543e fab3 b2be bb58 6b3e
00000140: e8ab be3e 2964 6bbe 8db5 7bbe a522 1abe
00000150: b8ff bcbc 4fd4 183d 9f61 593e cb57 663d
00000160: fecb 643d ca8c 8f3e cc73 afbe bd56 093e
00000170: b4ef f0be 569f 7cbe f758 883c fdea 5fbe
00000180: 205b 0bbe db80 893e 3a1b 883e 478d 553e
00000190: 89a3 9abd 2536 fb3d 841e 583e 26fe 52be
000001a0: 778d 0c3f 5127 053e 4e03 79be 5a38 38bd
000001b0: 7d86 d3be 2399 bbbe 9926 b73e dc82 583e
000001c0: fc06 d7be 6368 96be c3df d13e 81f3 ad3d
000001d0: 4986 26be d7da 56be ea3d 963b 88a9 e1bc
000001e0: ae24 71be 80ba 6bbe 8b29 6dbe cab3 d1bd
000001f0: 4623 8b3b fe9e a8be 2b30 80bd 5774 a23e
00000200: 3c3c b5bd bdfd 99bc db61 523e 77ed c1bd
00000210: 196f e0bc a2f0 bd3e bc64 ea3e 071b da3d
00000220: 0875 1fbd 819f 42be b134 2f3e 37bf a0be
00000230: b7a5 a0bd 0197 853e 0a50 093e dd0c 22be
00000240: e556 eebd dbdc 8b3d c397 4a3e ba2e 953c
00000250: 0d59 81be 5914 9fbe bfd6 91be b715 12be
00000260: 9631 0a3f 24f2 b0bd f8b0 a2bb e66a 553e
00000270: b049 c9be 6ef0 46be 2afc be3e 8bcd a1be
00000280: 9b42 f73d 5641 41be d872 443e 124e 9dbe
00000290: 9791 7f3e b442 98bc d905 6dbe 8aec 73be
000002a0: ae4c 893e bca8 843e 5e33 993d e093 81be
000002b0: d6ed 1bbe cd63 e93d 6299 883e 9dac 6cbd
000002c0: 93fc eb3c 6a8d 22be fb07 c4bd aca6 65bd
000002d0: 6727 18be 51c3 e3bc 7848 b5be 3320 073e
000002e0: 9cbe 283d 46dd 0abe fa2f a6be 57a6 a73e
000002f0: b9f8 783e 609c 34be af93 f2be e6e6 df3a
00000300: 0181 083e 186a 423e 85b5 dcbe 0e01 233e
00000310: 4530 d4be dcdf 99bc c4a8 a8bd 66ab 733e
00000320: 1f63 443e 3aa3 313e 6f5f 2b3e f20b 27bd
00000330: 617b 61be 50e1 173e 1b3a bb3d 3d0b a93c
00000340: c74c a5bd 4259 d33e f290 a3be 71ae bfbd
00000350: dd69 c7be 0370 d1bd 0c65 bb3e b628 c5bd
00000360: 4002 96be 404f 2c3e dfa7 08bc c0e2 f03e
00000370: d702 b23e d510 b3be bb23 80be 6d10 c93e
00000380: 07bd 5f3c dcbb 9fbe 2b72 1fbd ac72 a33c
00000390: ff86 c0be 1a31 acbe 3469 afbe 1647 003e
000003a0: d183 9ebd f429 50be ed17 a1be 88d0 ecbd
000003b0: 2048 28be 9e07 963b ccf9 163d 72d5 8a3e
000003c0: afb3 b53e 2e42 c2be 7c59 c5bc 5125 8dbe
000003d0: dff6 683d f62d 22be 9733 83bd 859f 9fbe
000003e0: f670 d53d 3aae 9ebc 41b9 cabe b1de 913e
000003f0: b2f2 8b3e f7a3 85bd b8c8 ffbd 021a 393e
-0.3992278 -0.21530277 0.28241155 -0.0306806 0.17796047 -0.33126765 0.43305477 -0.08719867
0.31250077 0.027673054 0.095637105 0.3184351 -0.09104547 -0.33890197 0.18343058 0.08314181
-0.35782233 -0.12380568 0.31696355 -0.27716017 0.20921026 -0.15663843 -0.38592115 -0.20791781
0.20182353 -0.033528164 0.28530347 -0.3502812 -0.29248846 0.29579887 0.17269759 0.45899191
-0.1486722 -0.031106474 -0.16376173 -0.028113343 0.3143433 0.33148432 0.10022949 -0.27718985
0.046843763 -0.4048221 0.4613503 0.505492 -0.19117011 -0.26043463 0.18904833 0.17476511
0.3387156 0.33534643 0.20938666 0.16896293 -0.05517243 -0.029121174 0.4301674 0.103966996
0.2917364 0.20003584 0.22559588 -0.035611287 0.1097416 -0.19512998 -0.22419295 0.32378066
-0.051783375 0.18803744 0.17485271 -0.2782509 -0.16266254 0.011305968 -0.38210166 -0.27731216
-0.6765804 0.28031766 -0.47463027 0.27508304 -0.07363876 0.20717114 -0.34902936 0.22983067
0.3724053 -0.22987427 -0.24580975 -0.15052278 -0.023071155 0.03731185 0.21228646 0.05623607
0.055858605 0.280371 -0.34268034 0.13411994 -0.4705788 -0.24670157 0.016643984 -0.21866985
-0.1360898 0.2685612 0.26583272 0.20854674 -0.07550723 0.122661866 0.21105391 -0.20604762
0.5490336 0.1300328 -0.24317667 -0.044975616 -0.41313544 -0.36640272 0.35771635 0.21143669
-0.41997516 -0.29376516 0.4099103 0.0849371 -0.16262163 -0.20981918 0.0045850175 -0.02754666
-0.23549148 -0.23020363 -0.23160379 -0.1023937 0.0042461483 -0.329338 -0.06259187 0.31729385
-0.088493794 -0.01879775 0.20545141 -0.09469121 -0.027396725 0.3709765 0.4577998 0.10649686
-0.03892997 -0.19006158 0.17109944 -0.31395885 -0.078441076 0.2609177 0.13409439 -0.1582522
-0.116376676 0.06829234 0.19784455 0.018210758 -0.25263253 -0.31070212 -0.2848415 -0.14266096
0.5398191 -0.08639935 -0.004964944 0.2084156 -0.39314032 -0.19427654 0.3730176 -0.3160213
0.12073251 -0.1887258 0.19184434 -0.30723625 0.24957882 -0.018586494 -0.23146762 -0.23820701
0.26816314 0.25909984 0.07480501 -0.25308132 -0.15227446 0.113959886 0.26679522 -0.057781804
0.02880696 -0.15874258 -0.09571835 -0.056067154 -0.14858781 -0.027803095 -0.35406852 0.13195877
0.041197404 -0.13560972 -0.32458478 0.32744095 0.2431363 -0.17637777 -0.473783 0.0017082363
0.13330461 0.18985784 -0.43107238 0.15918371 -0.41443077 -0.018783502 -0.082353145 0.23795852
0.19178437 0.17347422 0.16735624 -0.040782876 -0.22019722 0.14832044 0.09141942 0.020635242
-0.08071285 0.41279036 -0.31946522 -0.09359444 -0.38947955 -0.10226443 0.3660053 -0.096269056
-0.29298592 0.16827106 -0.008340805 0.47047997 0.34767792 -0.3497378 -0.2502726 0.39270344
0.0136559075 -0.31198013 -0.03892724 0.01995214 -0.37602994 -0.33631212 -0.3425995 0.12527117
-0.07739986 -0.20328504 -0.31463566 -0.11563212 -0.16433764 0.0045785448 0.03685932 0.2711597
0.3548865 -0.37941116 -0.024090521 -0.27567533 0.05687606 -0.15837845 -0.06406324 -0.3117639
0.10421936 -0.019370187 -0.39594463 0.28490213 0.273336 -0.065254144 -0.12489456 0.18076327

model/conv2d/Conv2D f4 [16, 3, 3, 1]
00000000: de37 d5bd bc60 0ebf 1bd0 c0be 22ba 3d3e
00000010: ffb4 613e 81fa ec3d 9c9f f83e b9f5 b83e
00000020: fdcd 473d 60bb ddb5 d552 533e 352c 0dbc
00000030: 595e 803e 98f9 443e f420 933e 3504 74be
00000040: a718 dbbe 5f96 95be e397 733e a03e 06bc
00000050: 06c5 eabd d988 f73d 5312 eb3c 5706 bf3e
00000060: dbb7 22be 2feb 6bbe 6b0b 773e 7ed7 9ebe
00000070: fba6 5cbe 43f8 563e 1805 dd37 2de9 ae3e
00000080: 2ff7 a43e 562c 473e 0629 a5bc 48ae a8be
00000090: 5d06 98be 61bb 00bf 6e0b 603d 9b22 25be
000000a0: e29a 29be fb45 8d3e d33d 883e 9f8f 873e
000000b0: 9c2a 433e 3dad ea3e d6db 503e 4497 87be
000000c0: 50f4 a63e b828 c33d 02bd d6be 9250 793e
000000d0: cee7 90be 44fb cdbe 7698 453e f6ad 353d
000000e0: 2940 853e d5ee fbbd 6274 aa3e e230 41be
000000f0: 8350 cbbe d66a f3be 9b9d dcbe 3b48 6e3e
00000100: de02 683e f5e6 533e bd2b 1bbe f016 073e
00000110: e7f5 a43e 11fc adbe cd8d e0be 2b7d a4be
00000120: 5e8f b23e 0e66 59be 650f 18be 278c 6b3e
00000130: d3b0 4fbe 684b d03d f3eb 673e ac95 63be
00000140: fb1b dc3d 3bbf 1f3e 8919 aebd 45e7 7d3d
00000150: 0f90 083e 4ce0 503e c9c6 113e 3ea7 623d
00000160: 9252 4dbd 646b aa3c d108 423e aae1 20bc
00000170: af2c aa3e e541 673e 9b9d 533e 8532 63be
00000180: 90b9 45be 0cae b0be dce6 0fbe b5bf 283e
00000190: 4f94 c83d f661 773e 566e 2f3c ca1d 433e
000001a0: 50cb 83bc 4a00 323e 4ba9 763e 5af9 2f3e
000001b0: f458 d8bd f4b5 923d b329 a23e 829b 16bf
000001c0: ba95 5e3d 9481 123e bc3a 0abd 0a3d b93e
000001d0: f996 293e e509 0dbe 5e41 443e 8513 bd3d
000001e0: e2c1 6a3e e9da 4b3e b785 4ebe 8bf6 c73d
000001f0: 89fb 95bd 2cab 25be d8eb f9bd 1c5d 1cbe
00000200: 4356 c83e 5212 cd3d 8ed2 9ebe 80c9 dabd
00000210: 5436 903e 7000 8b3e 33c1 debe 7521 393d
00000220: 0ae2 853d 3ee4 373d cbe3 883e 3a5a 563e
00000230: 80a6 77bc e426 c1bd e7fa e13d 973e 023e
-0.104110464 -0.55616355 -0.37658772 0.18528035 0.22041701 0.11571217 0.48559272 0.36124972
0.04878043 -1.6520316e-06 0.20637067 -0.008616497 0.25071982 0.19235837 0.2873608 -0.2382973
-0.42792246 -0.29216287 0.23788409 -0.008193642 -0.114633605 0.120866485 0.028695261 0.37309524
-0.15890448 -0.23038934 0.2412545 -0.31023782 -0.21548073 0.20993142 2.6347625e-05 0.34162274
0.32219836 0.19450507 -0.020161163 -0.32945466 -0.29692355 -0.5028592 0.0546984 -0.16126482
-0.1656299 0.27592453 0.26609668 0.26476762 0.19059223 0.45835295 0.20396361 -0.26482594
0.3260827 0.09529251 -0.41941077 0.24347141 -0.28301853 -0.40230763 0.1929644 0.044355355
0.26025513 -0.12301413 0.33291918 -0.18866304 -0.39709863 -0.47542447 -0.43088993 0.23269741
0.22657344 0.20693572 -0.15153404 0.13192344 0.3221886 -0.33981374 -0.43858185 -0.32126746
0.34875005 -0.21230337 -0.14849623 0.23002683 -0.20282297 0.101706326 0.22648601 -0.22225064
0.10747524 0.15600292 -0.08500964 0.061988134 0.13336204 0.20398062 0.14235987 0.055335276
-0.050127573 0.020803161 0.18948676 -0.0098194275 0.33237216 0.2258373 0.2066559 -0.2218724
-0.19309068 -0.34507787 -0.1405291 0.1647938 0.097939126 0.24158463 0.0107074585 0.19054332
-0.016088158 0.17382923 0.24088018 0.17184964 -0.105638415 0.07163611 0.3167244 -0.58831036
0.05434201 0.14307243 -0.03374742 0.36179382 0.16561498 -0.13773306 0.1916556 0.09232239
0.22925523 0.19907726 -0.20168196 0.09763821 -0.07323367 -0.16178578 -0.12203187 -0.15269893
0.39128312 0.1001326 -0.31020015 -0.10682964 0.2816645 0.2714877 -0.43506774 0.045197923
0.06537254 0.044895403 0.26736292 0.20932856 -0.01511538 -0.09431246 0.11034184 0.12719189

model/conv2d_1/Conv2D f4 [16, 3, 3, 16]
00000000: a07b 3abe 3e4f 333e 9d33 c7bc 3552 d1bd
00000010: 068b 1b3d f340 3dbe bc05 133e 977b ed3d
00000020: 5fcf 9ebc 6be6 343c 481e 5bbe 6fe6 29be
00000030: 9695 1dbc bbb6 3bbe 392f 9f3d 6636 8a3d
00000040: 66b6 edbc 08c5 11ba 5714 8f3d c1f8 ac3d
00000050: 1fad 883d 694c e33c 9729 cf3d 01f8 fb3d
00000060: 0579 3f3e eb20 523e 23a4 55bd 5cb1 0fbd
00000070: d6ca 493b b4cc e13d 6f8b 06be 66ee f63d
00000080: 40ed 713d 1deb 74bd 1c7e 443e 57f1 b93e
00000090: bb8d 043d 860b 503c ebcc d83c 52fb 55bd
000000a0: 4767 2c3e 6cf8 853e 69f1 d83d 6bef 903d
000000b0: 76b6 643e 34a3 7f3e 432a 5bbe 4234 353e
000000c0: 6afc ea3c 45e0 f3bc 8234 87be 33e9 94be
000000d0: fefc c33d 9023 adbe 7a2a c13d 76bd da3d
000000e0: f2b1 89be d944 7abe c35c 9abe 6445 a4be
000000f0: b3e8 a9bd 7121 c1be 26c9 ad3e ed0e d5bd
00000100: f344 88be d81c 113e 358b 4fbd f6a8 0fbe
00000110: a2c9 2cbe b786 b2be 939b 883c 111f 963e
00000120: 7908 2ebe 7a26 00be b416 46be aee5 87be
00000130: cdb9 46bd 31e7 84be 1479 313e 25ed d8bc
00000140: 1dcb 98be 90ab 953e 20d6 8bbd 627b 39bc
00000150: b0f1 9abd 5b21 d4bd 08c7 9d3e 0a1b 4a3e
00000160: ebe0 3ebe 1dee fc3d 40e6 593e 2ce3 a0bd
00000170: 80da 91bd 0251 0b3e 3648 debc 9405 38bd
00000180: 06e0 c53e c903 4bbe bf79 483e 65d9 b5bd
00000190: 95c3 4b3e 511d 10be a945 3fbe c130 aabe
000001a0: f928 813d bd6d 01be 4572 87be 66c3 623e
000001b0: f032 423e 3953 ddbc a04c e43e cc93 803e
000001c0: 159e cc3e 2299 0ebf 4841 113c 5576 a1be
000001d0: 73d9 1cbd aa5d 81be eebd 21be 8547 dcbe
000001e0: 6f9f c23c c496 dbbd 3686 1cbf 1cfc 433c
000001f0: 2840 e8bd d46e e6bd b5a1 bd3e 4f5c b1bd
00000200: c69b a0bd dd3f 44be 0790 5ebe d006 cdbd
00000210: 8ab2 1fbe 0376 01be e938 713e d874 443d
00000220: 2f99 87be 2e42 94be ed8b 34bd 5502 09bd
00000230: 32c9 b6bd 9143 03be 092c d13e 367f 9ebd
00000240: 109d 4cbe c95a bf3d 4337 17be 96d4 91bd
00000250: 87ac 04be 7011 c53a f389 733e 9774 2f3c
00000260: 4f43 7ebe b743 73bd 0d31 373d bc70 2b3c
00000270: d7d6 83be b4c0 0c3d 3c4f cebd 25b4 37bd
00000280: 94b4 8abe 6442 89be fcde 0fbd ba1b 3f3e
00000290: 2cd9 483d 3edd d83d ad0f 5abe 2e59 a4be
000002a0: d21f 11bd 5261 88bd b6d2 94be 5855 593e
000002b0: 0fed 333e 2749 6ebc 31a2 9abe de44 5abd
000002c0: 9cd3 cd3a f177 15be 9b57 b33d bd0e debd
000002d0: a1c1 fc3d f0d2 a23e cf4e e4bc f907 a3bd
000002e0: b223 60bd daf6 433e 957f 273d ee76 263e
000002f0: d69d db3d 28c5 423e f9ac b93c 262c 813e
00000300: 69e4 50be afac 5bbe bad7 dfbd 380d 8bbe
00000310: 05c2 e6bd 65a5 32bd 13cb dd3d 47d3 36be
00000320: e848 b8bd 0300 8abe 33f8 a3bd 9574 98be
00000330: ebe8 67be b29a 89be c9e2 38be b747 92be
00000340: 582d f039 7202 06be a696 23bd 2a88 e03d
00000350: 9fac 0fbd 30a0 6a3b db19 27be 0cc7 90bd
00000360: 1d0e dbbd 7f67 d03d fac8 28bd 6d4a 863d
00000370: ffc4 803e 2415 24bc a85a c53c 8071 4e3d
00000380: 04d0 ed3d 1460 d3bd dcfe b4bd b2cf b33d
00000390: a92d 5a3d a9b3 253e 6f80 b53d 53ff 03be
000003a0: 3ea0 c5bd 4fec 293d 7934 a6bc 9729 143e
000003b0: c768 04be c0c5 393d e4d2 d93c d844 48bd
000003c0: a4e9 ea3d 1a71 78bd ad5f ca3d 484f acbd
000003d0: 82a3 5c3e bd59 9a3d e769 0f3e 7292 5c3e
000003e0: a4a8 d33d 07f9 6dbe b154 c3bd 537a 80bd
000003f0: 421d cc3c 74ba cabd a637 3bbe 8ead 0fbe
-0.18211222 0.17510697 -0.024316603 -0.10220758 0.03797438 -0.18481807 0.14357656 0.115958385
-0.019385992 0.011041264 -0.2139827 -0.1659181 -0.009618184 -0.18331425 0.07772679 0.06748657
-0.029017638 -0.0005560671 0.069863014 0.084458835 0.06673645 0.027746396 0.101153545 0.12303162
0.18698509 0.2052037 -0.052158486 -0.035081252 0.0030791066 0.11025372 -0.13139127 0.1205719
0.05906415 -0.059794534 0.19188732 0.3631694 0.032361727 0.01269806 0.0264649 -0.05224163
0.16836272 0.26166093 0.1059292 0.07076915 0.22335228 0.24964601 -0.2140284 0.17695716
0.028684814 -0.029770026 -0.26407248 -0.29084167 0.09569739 -0.33816195 0.0943193 0.10680668
-0.26893574 -0.24440326 -0.30148897 -0.3208419 -0.08296337 -0.37720826 0.33942527 -0.104032375
-0.26615104 0.1417116 -0.050669868 -0.14029297 -0.16873792 -0.34868404 0.016675746 0.29320577
-0.1699542 -0.12514678 -0.19344598 -0.2654242 -0.048517037 -0.25957635 0.17331344 -0.026480267
-0.29842463 0.29232454 -0.068279505 -0.011320921 -0.075656295 -0.103579246 0.3081591 0.19736877
-0.18640487 0.12350104 0.2127924 -0.078558296 -0.07121754 0.13605121 -0.027134042 -0.044927195
0.3864748 -0.19825663 0.19577692 -0.08879355 0.19898827 -0.14073683 -0.18678917 -0.3324032
0.06306643 -0.12639518 -0.26454368 0.22144851 0.18964744 -0.027017223 0.4458971 0.2511276
0.39964357 -0.5570241 0.008865662 -0.31535593 -0.038293313 -0.25266773 -0.15795109 -0.43023315
0.023757664 -0.10722116 -0.6114229 0.011961963 -0.11340362 -0.112516075 0.37037435 -0.086601846
-0.078422114 -0.19164987 -0.2173463 -0.10011065 -0.15595451 -0.12642674 0.23556866 0.047962993
-0.26484057 -0.2895674 -0.044078756 -0.03344949 -0.08925094 -0.12818743 0.4085391 -0.07739107
-0.1998179 0.09343488 -0.14767174 -0.07120626 -0.12956439 0.0015035104 0.23783092 0.0107089495
-0.24830364 -0.05939075 0.044724513 0.01046389 -0.25749847 0.034363464 -0.100737065 -0.044849534
-0.27090895 -0.26808465 -0.035124764 0.1866292 0.049035236 0.105890736 -0.21295042 -0.3209929
-0.035430737 -0.066591874 -0.2906701 0.21223962 0.175709 -0.014543808 -0.30201867 -0.053288333
0.0015703323 -0.14596535 0.08756944 -0.10842655 0.12341619 0.31801558 -0.02786961 -0.07960505
-0.05472154 0.19137135 0.040893156 0.16256306 0.10723464 0.19020522 0.022665488 0.25228995
-0.20399632 -0.21452592 -0.109298185 -0.27158523 -0.11267475 -0.043614764 0.10829749 -0.17854033
-0.08998281 -0.26953134 -0.080063246 -0.29776445 -0.22647445 -0.26875836 -0.18055262 -0.2857034
0.0004581015 -0.1308687 -0.03993859 0.10963471 -0.035076734 0.0035801046 -0.16318457 -0.07069215
-0.10696051 0.1017599 -0.04120729 0.06557164 0.25150296 -0.010014806 0.02409108 0.05040121
0.116119415 -0.1032106 -0.08837673 0.08779849 0.0532662 0.16181816 0.088623874 -0.12890367
-0.096497044 0.041485127 -0.020288693 0.1446899 -0.12930594 0.045354605 0.026589818 -0.04889378
0.11470345 -0.060654737 0.0988153 -0.08413559 0.21546748 0.075366475 0.14005242 0.2154024
0.103349 -0.23239528 -0.09537638 -0.062733315 0.024916295 -0.09898844 -0.18282947 -0.1403105

model/dense_1/MatMul;model/dense_1/BiasAdd f4 [10]
00000000: 2719 d23e f8f3 323f 978d 3b3e 5c49 b9be
00000010: 524d 91be ca54 1c3e 87e7 45be fe88 8bbd
00000020: 929e 7bbe 070d d2bd
0.41034815 0.69903517 0.18315731 -0.3618878 -0.28379303 0.1526672 -0.19326602 -0.068132386
-0.24572209 -0.10256391
