android/app/src/main/assets/mnist.tflite (tflite, 216140 bytes, 7 tensors)

conv2d_5/bias f4 [16]
000000 0e 34 52 be 62 73 4e bc 41 08 b1 bc 38 34 11 be
       -0.2052767 -0.012600752 -0.021610381 -0.14180076
000010 12 3a c9 bd 6f 10 9a 3c 7b 51 af bc af cf 88 bc
       -0.09825529 0.018806664 -0.021401158 -0.016700594
000020 ca 90 c7 bd fd 03 1d bd fb d7 1f be a3 19 4e bd
       -0.09744413 -0.03833388 -0.15609734 -0.050317418
000030 be 63 fb bc b0 c5 c5 bd 34 33 7f bd b2 9a 15 be
       -0.03068721 -0.096568465 -0.06230469 -0.14609793

conv2d_4/bias f4 [16]
000000 f4 f8 69 bd 63 89 da bd 73 dc fa 3a a1 44 c4 3c
       -0.057122186 -0.10670736 0.0019139185 0.023958506
000010 ca c9 51 bd 65 21 84 bd 10 19 a8 bd 8b a4 8f 3c
       -0.05121783 -0.06451682 -0.08207905 0.017534515
000020 43 9f 98 bd 1d c5 c1 3b 2c 58 fd 3c 7e 5d 88 bb
       -0.07452252 0.0059133903 0.030925833 -0.0041615358
000030 52 1a fd bb a6 5d 52 bb fe 6d b3 bd ac a7 95 3c
       -0.007724085 -0.0032099276 -0.08761214 0.018268429

model_2/dense_4/MatMul f4 [64, 784]
000000 f3 72 c8 bd d8 af 19 be b5 b4 5b bd be 63 d0 bd
       -0.0978755 -0.15008485 -0.053639133 -0.10175274
000010 bf fe 9d bc 85 99 f6 bd 19 e2 96 ba 35 01 9a 3d
       -0.019286511 -0.12041 -0.0011511474 0.075197615
000020 98 3e 00 be 3d 63 de bd f0 06 01 be 32 0c 50 bd
       -0.12523878 -0.10858772 -0.12600303 -0.05079288
000030 ab 77 7d be a5 11 dc bd e1 49 11 be 21 f9 68 be
       -0.24752681 -0.10745553 -0.14188339 -0.22751285
000040 1c 47 7d be d0 d0 64 bd 16 ba c1 3d 3d 54 62 3e
       -0.24734157 -0.0558632 0.09459321 0.22102447
000050 f0 cc 3e be 76 a5 7c bd f4 fa 96 be fa 26 ef bc
       -0.18632865 -0.061681233 -0.29488337 -0.02919339
000060 cd ef 52 bd 72 3d c5 bc 69 15 38 bd 73 2f 2d be
       -0.051498223 -0.024077151 -0.044942293 -0.16912632
000070 5c f4 95 bd 35 48 eb 3c 3b a1 45 3d 3f c1 2f 3e
       -0.073219985 0.028720954 0.048249464 0.17163561
000080 16 c3 db 3d 25 ce f2 bd 92 58 ad bb 1b cf f7 3c
       0.10730569 -0.11855725 -0.0052900994 0.030250123
000090 86 1d 06 3d d4 f5 2b 3e 98 ca 43 3d 87 0d 90 be
       0.032743 0.16792995 0.04780063 -0.2813532
0000a0 94 27 11 3c 9c d3 5f be 8c 61 6a 3d 4c 5d c4 bd
       0.008859534 -0.21858066 0.057221934 -0.095881075
0000b0 84 b6 6e bd 03 50 59 bd 50 91 80 3c 5e c2 d9 bd
       -0.05827953 -0.05305482 0.01569429 -0.10632776
0000c0 19 ee ab 3c 13 44 d8 bd 98 ef be bd 26 29 23 bc
       0.020987557 -0.10559859 -0.09323043 -0.009958541
0000d0 67 ca d1 bd cf a0 26 be 2a 0a 99 be b1 f2 ce bd
       -0.10243683 -0.16272281 -0.29890567 -0.101048835
0000e0 08 02 a5 3d 0f 5d 5b bd e4 a0 65 bd 42 65 91 be
       0.08057028 -0.053555544 -0.05606164 -0.28397566
0000f0 aa fa 54 bc e3 64 e5 bd 3d c1 83 3e de a2 be bd
       -0.012999216 -0.11200883 0.25733367 -0.09308408
000100 2a 99 c8 3d 6d 23 be bd d8 70 a1 3d 69 af 0d be
       0.09794839 -0.09284101 0.07882851 -0.13836445
000110 5d fd 7d 3c a9 a4 25 be 98 a4 07 be 11 33 91 bd
       0.015502301 -0.16176094 -0.13246381 -0.07089818
000120 fc 01 5b bd b0 b4 31 bd a4 8c 1f be 73 86 29 be
       -0.05346869 -0.043385208 -0.15580994 -0.16555195
000130 bb 45 0b 3d 6d e7 1f be 3c b6 63 3c aa e0 23 3e
       0.034002047 -0.15615626 0.0138984285 0.16003671
000140 de 94 95 bc 3c a5 9f 3d ec 07 6e be de d1 2b 3e
       -0.018259462 0.07795188 -0.2324521 0.16779277
000150 d5 ad 70 3d 7c 33 fe 3d 9b a0 15 be 3d 89 cf bd
       0.05875953 0.124121636 -0.14612047 -0.10133598
000160 06 92 80 bc a7 48 64 bd 37 71 a4 3d d3 35 8a 3d
       -0.01569463 -0.05573335 0.080294065 0.067485474
000170 20 ab f7 3a 13 e4 6c 3e 89 34 83 3d 85 01 dc 3c
       0.0018895604 0.23133878 0.06406505 0.026856193
000180 28 62 b3 bc f3 46 99 bc f9 0c 32 3e f6 48 78 3d
       -0.02189739 -0.018710589 0.17387761 0.060616456
000190 65 63 86 3c a9 95 0b be ed 3b d7 3b 33 be 3d 3c
       0.016404817 -0.1363131 0.006568423 0.011580992
0001a0 9a 20 a2 bc ff 29 50 3d 14 83 c3 bd 78 ac ad 3d
       -0.019790936 0.0508213 -0.095464855 0.084801614
0001b0 3c af e3 bd 85 14 e3 3a 90 15 9c 39 58 b6 b0 bd
       -0.11117408 0.0017324841 0.00029770704 -0.08628529
0001c0 35 00 aa 3c 75 fa 05 3e 78 1a d9 3d ba 58 0c 3c
       0.020752052 0.13083823 0.10600752 0.008566076
0001d0 f2 0d 5e bc a1 5d a9 3d 10 a5 d4 bc ed 6b 1e 3b
       -0.0135531295 0.082698114 -0.025957614 0.0024173215
0001e0 ef b2 13 bd 35 b5 56 be 47 41 d1 bc 0b f8 bf 3d
       -0.036059316 -0.20967562 -0.025543822 0.09373482
0001f0 2a 73 a1 bd dc d8 0b 3d 16 f6 e5 bd f1 61 ec 3d
       -0.07883294 0.03414236 -0.11228578 0.11542118
000200 b0 88 93 bd 9c 48 a6 3c 4d 2f 19 3d 87 b6 86 3d
       -0.072038054 0.020298295 0.037398625 0.06577783
000210 c5 5a 0c 3e ef 40 8d bd 1d 35 2e 3d 8e 73 68 3e
       0.13706501 -0.06897151 0.04253112 0.2270033
000220 4a 91 2b bd 8f 53 c1 bd 00 32 28 3d d1 c7 b6 3c
       -0.041886605 -0.09439766 0.04106331 0.022312077
000230 c0 93 d2 bd ad 42 14 bd 41 2a f6 3b 82 87 80 be
       -0.10282087 -0.0361964 0.0075123613 -0.25103384
000240 1f 13 1e 3d 44 40 cb 3c 95 c7 d6 3d 91 30 2a 3d
       0.038592454 0.024810918 0.10487286 0.041550223
000250 ae 6c 7c 3d 03 6b c7 bd 40 67 6c 3d 7e e4 f6 bd
       0.061627083 -0.09737208 0.057715654 -0.120553
000260 f1 a8 c6 3d 54 10 30 3e 8a 60 56 bd ef ef 81 3d
       0.09700192 0.17193729 -0.05233816 0.06344592
000270 64 9b c7 3d 73 cc b1 3d ee 5a b2 bd b4 29 25 3e
       0.09746435 0.08681574 -0.0870875 0.1612919
000280 0d 6e 24 be 0b 6e 2e 3c a0 b5 b9 be 1a cd 84 bd
       -0.16057606 0.0106463535 -0.3627138 -0.064844325
000290 f9 35 cb 3c 17 6d 08 bb 98 24 9d 3c f6 34 96 3c
       0.02480601 -0.0020816976 0.019182488 0.0183358
0002a0 a0 e9 c0 3d 4b 1e 39 3c e7 42 96 bd d5 7c 1e 3e
       0.094195604 0.011298726 -0.07336979 0.15477307
0002b0 01 bb 24 bd ca 6c cc 3d 75 64 27 be ee 42 c4 3d
       -0.040217403 0.09981687 -0.16346915 0.09583078
0002c0 04 f2 25 3c cf a7 9a 3d 82 b3 50 3d 93 56 44 3b
       0.010128502 0.07551538 0.050952442 0.0029958829
0002d0 12 23 66 3d f1 23 48 3e 32 bd 57 be 39 cc 44 3d
       0.05618579 0.1954496 -0.21068266 0.048046324
0002e0 fd b7 0e 3e 9d 3e e8 3a 6c 35 82 bd c9 eb b6 3d
       0.13937373 0.0017718856 -0.06357846 0.08931691
0002f0 89 b2 fa 3d 99 5e 31 3b 5b 41 28 bd 45 cc 1d 3d
       0.12241084 0.0027064441 -0.041077953 0.038524885
000300 39 83 d4 3d fe 7a b8 bd d6 29 33 3e 09 91 fb bd
       0.10376591 -0.09007834 0.17496428 -0.12283523
000310 b0 ca 34 bd 64 d6 78 be 6a e2 47 be 31 9a 83 bb
       -0.04413861 -0.24300534 -0.19519964 -0.004016184
000320 ef c4 04 bd 59 cf 8c bd e7 e0 7d be 1a cd 70 bc
       -0.032414373 -0.06875486 -0.24792825 -0.0146973375
000330 9c 34 8d be 52 54 4a bc b9 f6 e4 bc da 5f 8b bd
       -0.275792 -0.012349205 -0.027949678 -0.068053916
000340 c0 88 5a be 05 d0 98 bd 14 10 de 3c 8b 8f f1 3d
       -0.21341228 -0.074615516 0.027107276 0.11794957
000350 82 52 41 3d c7 bf 60 bd ff 61 57 be 17 df 16 be
       0.047197826 -0.054870393 -0.21033476 -0.1473354
000360 54 f6 80 3e 4a 8c a4 bd 3b 8c 05 be 20 13 df ba
       0.25187933 -0.080345705 -0.13041775 -0.001701925
000370 e8 cb 05 be 57 d2 78 3d 16 99 0c 3d 9a 26 87 bd
       -0.13066065 0.06074747 0.03432568 -0.065991595
000380 bd 85 ee bd 01 4c 23 be 4e f0 4f 3b cc 3a 19 3b
       -0.11646602 -0.15946962 0.0031728926 0.0023380993
000390 27 d1 3b bd a3 f7 46 bc 8b 2a bc bc 4e 81 bf bd
       -0.04585376 -0.012144002 -0.022969505 -0.09350835
0003a0 ae 16 e4 bc a9 f3 dd bd 0f 73 b0 bd 66 79 a4 bd
       -0.027842846 -0.1083749 -0.08615696 -0.080309674
0003b0 55 b4 ce bd 50 b2 e1 bd 67 31 c6 3c 85 23 87 3d
       -0.10092989 -0.110203385 0.024193479 0.06598572
0003c0 d0 f9 b3 bd ba 02 fe 3c 82 ef 2c bd c1 e6 f4 bc
       -0.08787882 0.03100716 -0.0422206 -0.029895188
0003d0 c3 2d 4e 3d 6f 9a ad bd 26 8e ab bc e7 63 fc 3d
       0.05033661 -0.084767215 -0.020941805 0.12323742
0003e0 35 e9 50 3d 05 0a 45 be c0 81 b3 bd ff 65 c9 bd
       0.051003654 -0.19242103 -0.08764982 -0.09833907
0003f0 17 a7 03 3e 59 c1 97 bc a8 68 48 3b 7b 04 8d 3d
       0.12856708 -0.018524813 0.0030579958 0.0688562

model_2/dense_5/MatMul f4 [10, 64]
000000 a2 c8 fa bc ec bf f5 3c 76 c6 a1 3e f7 00 9d bd
       -0.030613247 0.029998742 0.31596726 -0.076662
000010 ee 34 42 3e a0 85 95 be 4a 9b dc 3e f9 46 aa bd
       0.18965504 -0.2920351 0.43087226 -0.08314318
000020 9f 8e ac be f8 47 73 3e 33 57 d7 3e 3c ff b1 3e
       -0.3370256 0.23757923 0.42058715 0.3476504
000030 ba bb 8e be fd 0d 82 be 4d ec e1 bc dd 1a 68 3e
       -0.278776 -0.25401297 -0.027578497 0.22666498
000040 95 19 72 3e 95 b7 a5 be 92 9e ce 3e 42 5b e7 be
       0.23642571 -0.32366624 0.40355355 -0.45186812
000050 d4 8d de be 33 d5 cb 3e 66 b9 51 3e cc 24 42 bd
       -0.4346758 0.39811096 0.2048088 -0.047398373
000060 f7 89 12 be 05 d8 7f bc 46 e0 78 be 36 24 3f be
       -0.14310442 -0.015615468 -0.24304304 -0.18666157
000070 16 66 91 be 66 a5 6b be eb 27 e6 3e 28 6b 48 3d
       -0.28398198 -0.23012313 0.4495233 0.048930317
000080 9c 17 8d bd 88 62 83 be f8 59 7f 3d e4 50 d5 be
       -0.06889269 -0.2566111 0.06234166 -0.41663277
000090 e1 2f 91 3e 67 31 83 3e 05 b6 9e 3e 71 09 18 3d
       0.2835684 0.25623628 0.30998245 0.03711838
0000a0 53 50 85 be 5b 05 e8 3d 47 79 99 be e9 6a 4c 3e
       -0.26037845 0.113291465 -0.2997534 0.19962658
0000b0 bb ad f8 bd 83 07 a0 be 5a c6 ce be b4 91 40 be
       -0.121425115 -0.3125573 -0.40385705 -0.18805581
0000c0 8b 2e 5c 3e c5 f7 a9 bd c3 ee 73 3e 2c 31 42 3e
       0.2150213 -0.082992114 0.23821549 0.1896407
0000d0 94 96 e0 bd 4e 7a 11 bf 3d 42 5c 3e 14 68 88 be
       -0.109662205 -0.5682725 0.21509643 -0.26641905
0000e0 e9 62 4d 3e d5 55 ad 3e 43 33 d4 be 89 b1 bc 3d
       0.20057262 0.33854547 -0.4144536 0.0921355
0000f0 63 25 97 3d 6b 3d cc be 34 cc 84 be 0f c3 26 3e
       0.07380178 -0.39890608 -0.25937045 0.16285346
000100 28 a2 c5 bd d2 e0 8a be d2 a3 1a be 46 af a6 3e
       -0.096500695 -0.2712465 -0.15101555 0.32555598
000110 cf 4b 11 bf 3c b9 d2 bd d0 da 1c 3e c5 9c 7c be
       -0.567563 -0.10289237 0.15317845 -0.24669178
000120 a5 2e 8c 3e 00 62 1d 3e 44 8e ea 3d 37 42 01 3e
       0.27379337 0.15369415 0.11452916 0.12622915
000130 5c b2 75 be 36 4a 91 3e 72 bf 4c be 65 5f 16 3e
       -0.2399382 0.2837693 -0.19994906 0.14684828
000140 a1 4b 34 be 61 5d 0a bf d7 bc c5 3d db 94 99 3e
       -0.17606975 -0.54048735 0.09655159 0.2999638
000150 c5 1c f8 be ef 18 6f be be 9c f7 be 28 0c af bd
       -0.4845945 -0.23349355 -0.48361772 -0.085472405
000160 55 7d 84 be ab ff 56 3b 77 c2 ac 3e b9 9b 25 3e
       -0.2587687 0.0032806199 0.33742115 0.16172685
000170 9e 7c 59 3e 01 fa b5 be a3 61 0f be 9e 32 fb 3b
       0.21238944 -0.355423 -0.14002089 0.007665946
000180 84 a8 8e 3e 03 b6 36 be fe b9 55 3e f2 4a ed bd
       0.27862942 -0.1784287 0.20871732 -0.1158656
000190 57 3a 81 be b5 56 2b be 67 49 f5 3d 22 ef a4 be
       -0.25239822 -0.16732295 0.11976891 -0.32213694
0001a0 1b 91 13 bd 7d e7 3b be 1e 65 55 3e 67 af 3f be
       -0.036027055 -0.18350025 0.20839354 -0.18719254
0001b0 65 9c bd 3e 38 56 dd be cd 18 b5 3e 8c a5 ba 3c
       0.37033382 -0.43229842 0.35370484 0.022784017
0001c0 9e dc f3 be f4 62 d4 bd ae 2a 5f 3e aa f1 ac be
       -0.47629255 -0.10370436 0.21793625 -0.33778125
0001d0 a5 35 a5 be 5c b0 1e 3e 45 e5 6a be 1d 22 18 3f
       -0.3226749 0.15496963 -0.22939022 0.5942705
0001e0 de 62 85 be 2c 66 f7 bd 36 70 98 bd a8 f7 f4 3e
       -0.26051992 -0.120800346 -0.074432775 0.47845197
0001f0 0a 9c 99 3e b3 31 1b 3e 05 6a 9e be 86 77 8a 3e
       0.3000186 0.15155677 -0.3094026 0.27044314
000200 ec 9b ab 3e 67 92 a1 be 8d a7 6b 3e ed 63 a1 3e
       0.33517396 -0.3155701 0.23013134 0.3152155
000210 9b 86 f4 bb 33 9e 9d 3d 11 a3 a4 3e 9a c6 3b be
       -0.0074623353 0.0769619 0.3215566 -0.18337479
000220 85 4a a4 3d 4a 22 8d 3e 7f 2b 87 3c 21 46 8d be
       0.08022026 0.27565223 0.016500233 -0.27592567
000230 1d 53 48 be 54 5d e2 3e cd 07 29 bd c4 27 ae be
       -0.19562955 0.4421183 -0.041267205 -0.34014714
000240 51 35 7e 3e 3a 7d a0 be a5 cd a5 bd 64 4b 13 bd
       0.24825026 -0.3134554 -0.08095864 -0.03596057
000250 6b 26 63 3e a2 8d ad 3d 7e 41 53 3e a3 d1 7c be
       0.22182624 0.0847428 0.20630452 -0.24689345
000260 18 72 2f be 49 48 7a 3d 8b de b3 be 3b a7 9a be
       -0.17133367 0.061104093 -0.35130724 -0.30205712
000270 ed 61 8b 3d 66 5c 0c 3e c0 29 4f be 33 a9 94 be
       0.06805787 0.13707122 -0.2023077 -0.2903534
000280 45 27 56 be e6 0c 99 3e c2 a7 dd 3e 85 39 38 be
       -0.20913418 0.29892653 0.43292052 -0.17990692
000290 e7 8d 04 3e 98 6b f8 3d 70 70 26 bd bf b4 b0 be
       0.12944756 0.12129897 -0.040634573 -0.34512898
0002a0 6f 09 87 3e f1 80 55 be 43 85 57 3e 3b 2f 73 3d
       0.26374385 -0.20849968 0.21046929 0.059371214
0002b0 6f b9 49 bd b5 94 00 bd a0 da a0 3e 44 d8 be 3e
       -0.04924911 -0.031391818 0.31416798 0.37274373
0002c0 f4 ce bd 3e 77 46 20 be 8c ac 5e 3e ec b7 42 3e
       0.37071955 -0.1565188 0.21745509 0.19015473
0002d0 48 04 c1 3e 34 aa 59 3d 6a cb 99 be 65 53 60 3d
       0.3769858 0.053140834 -0.30038005 0.05476703
0002e0 db f9 0a bd 06 56 cb 3e d8 68 59 3d ff 51 82 be
       -0.033929687 0.39714068 0.053078502 -0.25453183
0002f0 55 e7 7d be bb 2e d8 be fc 93 d3 3d ac 42 65 3e
       -0.24795277 -0.42223153 0.1033096 0.22388715
000300 6b 48 3c 3e 3a 17 94 bd b5 6b c3 3d 15 7c 6a be
       0.18387 -0.072309926 0.09542028 -0.22898896
000310 14 1f 4c be a0 b6 c3 be 06 3a 80 3e 82 c5 3b be
       -0.1993373 -0.3822527 0.25044268 -0.18337062
000320 09 e1 bc be f9 26 e4 be ae 03 c3 be 6b f6 a4 3e
       -0.36890438 -0.44560984 -0.38088745 0.32219252
000330 4d b1 b8 bd ec 3b 9d be a6 9d 61 be 6b d6 f2 be
       -0.090181924 -0.3070978 -0.22032794 -0.47429213
000340 f2 7e 95 be 58 4f a4 3d 55 4c b0 3e 74 71 c1 3e
       -0.29198414 0.08022946 0.34433237 0.3778187
000350 34 a2 e6 3e 8b e6 ae be 4a b2 64 bd d7 b2 a4 be
       0.45045626 -0.34160265 -0.055834092 -0.32167694
000360 33 d3 dd 3d 86 63 2b bd 42 8d 48 be f0 79 74 3e
       0.10831299 -0.04184296 -0.19585136 0.2387464
000370 d8 41 95 bd 94 51 fd bd 5f b3 e8 3d 35 52 c5 be
       -0.07287949 -0.123690754 0.11362337 -0.3853928
000380 4a e7 01 be c5 dc b1 3e e0 8e 5b bc 26 49 18 be
       -0.12685886 0.34738746 -0.013400763 -0.14871654
000390 88 41 46 3e 66 e5 05 be 50 f8 90 be ec ae 83 bc
       0.19360936 -0.1307579 -0.28314447 -0.01607462
0003a0 01 58 4b be fb 13 cb 3e 2b c5 f9 3d b5 34 29 bd
       -0.1985779 0.3966368 0.1219581 -0.04131003
0003b0 f1 f2 1a 3e b6 58 7f 3e 6d 57 4a 3c 1d dc c0 3e
       0.15131737 0.24936184 0.0123499455 0.37667933
0003c0 5e f5 0e 3d 24 5a cc 3d ad 9c ab 3e 3c 13 aa be
       0.03490197 0.099781305 0.33517972 -0.332178
0003d0 e4 69 c6 be 27 7a a6 bd 63 a4 02 3e d3 81 65 be
       -0.38752663 -0.081287675 0.12758021 -0.22412805
0003e0 c1 7d 2c bd 34 1e b1 be 0f 2a 84 3e 6b 94 a7 be
       -0.042112116 -0.34593356 0.25813338 -0.3273042
0003f0 f6 24 90 3d e4 30 a3 3c d4 6d 99 3d 41 a2 b4 bd
       0.070383 0.019920774 0.07491651 -0.0882001

model_2/conv2d_4/Conv2D f4 [16, 3, 3, 1]
000000 9b 8e 4b be 0d de 75 3d 0b d5 2b 3e 47 ef 85 3d
       -0.19878618 0.060026217 0.16780488 0.06539779
000010 3b 35 4f bc 63 b5 3c 3e ba 56 7d 3e bc 23 85 3e
       -0.0126469685 0.18428569 0.24740115 0.26003826
000020 ff 64 a0 3d 8c c0 c9 be 4d ee b1 bd fc 2b 5d 3e
       0.078317635 -0.39404714 -0.086880304 0.2159881
000030 01 c0 e1 bd ca 72 a4 3e 58 cd cb 3d e5 eb 61 3e
       -0.1102295 0.32118827 0.099512756 0.22062643
000040 bf a9 99 bd de 59 23 3d 1e a8 7f 3e 3f 3a c2 3e
       -0.075030796 0.039880626 0.24966475 0.37935063
000050 01 87 a2 3d a1 72 59 3e f7 8f fd 3d d2 37 b0 be
       0.07935906 0.21235134 0.12380975 -0.34417588
000060 55 cb 61 3d 8f 1c 7f be fe 09 03 bf 37 b8 d7 3e
       0.055125553 -0.24913238 -0.5118712 0.42132732
000070 23 90 a9 3e ba e3 2b 3e 26 74 fe bd bb ca e1 3d
       0.3311778 0.1678609 -0.12424497 0.11024996
000080 f4 88 e0 3d a7 bb ce be 91 eb a8 be 64 3c d6 be
       0.10963622 -0.40377542 -0.32992223 -0.4184295
000090 c8 b0 a5 3e 6d af 3e 3e eb 87 ac be 1f d7 4b bb
       0.32361436 0.18621607 -0.33697447 -0.0031103564
0000a0 db b6 90 3e 64 b9 c8 3e d0 7e 10 bd 40 22 01 be
       0.28264508 0.39203942 -0.035277188 -0.12610722
0000b0 6e ae 33 3e 90 76 8d be d2 24 ff 3b 82 dd 47 3e
       0.17547008 -0.27629519 0.0077863717 0.19518092
0000c0 27 44 66 be 10 5b 48 3e 6b 92 39 bd 1e 62 7b 3d
       -0.22486936 0.19565988 -0.04530565 0.06137287
0000d0 d2 a3 86 3e 2a 5d 0e 3e c4 ef 5c bd 7f cf 54 3e
       0.2629686 0.13902727 -0.053939596 0.20782278
0000e0 da aa 0b 3e f9 b4 9d bd 50 1d 82 3e e1 69 82 be
       0.13639393 -0.077005334 0.2541299 -0.25471404
0000f0 af 56 7f 3e b4 15 81 3d 54 9e d0 bd fe be 9d be
       0.24935411 0.06302968 -0.10186449 -0.30809778
000100 1c b3 25 bf cf 9e de be ba 3c b7 3e e8 07 65 3e
       -0.64726424 -0.43480536 0.35788518 0.22366297
000110 d2 cb 39 bd 09 81 9d 3e 8c 4d 0a 3e 78 53 6c 3e
       -0.045360394 0.3076251 0.13506144 0.23078716
000120 cf 49 2d 3e 43 3a eb 3d 46 6a 2c 3e 81 bb 8f be
       0.16922687 0.11485722 0.16837415 -0.28072742
000130 f1 59 e9 bd 76 69 90 3e d7 88 89 bc 16 02 10 3e
       -0.11394108 0.2820546 -0.016788883 0.14063296
000140 c6 0d 2e 3d de 1a c0 be dc a1 5e 3e b1 59 c4 3e
       0.042493604 -0.37520498 0.21741432 0.3834968
000150 ab 31 10 bf de 08 8f be c4 40 a3 3c 68 dd f8 bc
       -0.5632579 -0.27936453 0.019928344 -0.030379012
000160 44 63 09 bd b6 8b e7 3d f5 f2 da be f0 04 cf bd
       -0.033541933 0.113059446 -0.42763487 -0.10108364
000170 db 8a 7c 3e 36 7a 26 bf ef d6 83 3d 50 24 e3 3e
       0.24662344 -0.6503023 0.0643748 0.44363642
000180 b5 3a df be be e3 12 bd 12 34 28 3e a1 16 b0 3e
       -0.43599477 -0.035861723 0.16426113 0.34392264
000190 1d a2 ce be c0 d0 20 bf 70 23 9e 3e df 1a 44 bc
       -0.40358058 -0.6281853 0.30886412 -0.011969297
0001a0 70 91 45 3e b0 35 13 3e f7 49 f0 bd 4e f4 8b 3e
       0.19293761 0.14375949 -0.11732858 0.27334827
0001b0 92 f2 8a 3d 16 5f 8c 3e 40 a8 1f 3d 62 58 14 3e
       0.06784548 0.27416295 0.038978815 0.1448684
0001c0 3d 15 7b 3e eb 3a 3d 3e b4 20 0b bf 3d f3 82 be
       0.2451982 0.18479507 -0.54346776 -0.255762
0001d0 92 c3 51 bd 9b 9c ae 3b 26 e6 44 3d 13 34 e0 3e
       -0.0512119 0.0053287274 0.04807105 0.4378973
0001e0 3d 17 7b 3d 92 bb 07 3e 47 9b 84 3e 3a 92 62 be
       0.06130146 0.13255146 0.25899717 -0.22126094
0001f0 46 81 1d bf 8e 9a 65 be 9c d9 aa 3e 73 ee 8c bc
       -0.6152538 -0.22422239 0.33369148 -0.017203545
000200 3b 3f 65 be 56 14 8b 3e 74 29 91 3d d2 fc e5 be
       -0.22387402 0.27163953 0.07087985 -0.4491945
000210 e2 a9 96 3e 15 3e ad 3e 52 23 8f bd c6 9c ca 3e
       0.29426485 0.33836427 -0.06989159 0.39572734
000220 96 d0 ed 3c 4a ee 7b be a6 48 68 3e 76 80 2d be
       0.029030126 -0.24602619 0.22683963 -0.16943535
000230 0f 7d 34 be d9 d5 87 3e ba 98 80 be 08 96 af be
       -0.17625831 0.2653034 -0.2511652 -0.34294152

model_2/conv2d_5/Conv2D f4 [16, 3, 3, 16]
000000 1e 19 50 3e 1e 96 d0 3d 84 97 c4 bd 0e 31 4f be
       0.20322081 0.101848826 -0.09599212 -0.20233557
000010 3c 3a 3f 3e 1a e3 14 3e a2 6e 71 3e 2b 7b 4c be
       0.18674558 0.14539757 0.2357736 -0.1996886
000020 6f b3 2e 3d 34 e9 e6 bd c8 3e d0 bd eb 38 21 3c
       0.04265159 -0.11274949 -0.101682246 0.00984023
000030 0e 00 2d 3d 25 55 3c be 7e d1 04 3d dd bb 99 3d
       0.04223638 -0.18391855 0.03242635 0.07506535
000040 dd ee 35 be 5a 9d 04 be 37 79 1a bd 9d bd 68 be
       -0.177669 -0.1295065 -0.037713256 -0.22728582
000050 20 b4 9e 3d 20 f9 bc bd 71 75 d8 3d d1 28 14 be
       0.077492 -0.09227204 0.10569275 -0.14468695
000060 0d 56 00 be 4a c6 fa be 1d 6d cb be 3e 4f 0b 3d
       -0.12532826 -0.48979408 -0.39731684 0.034011118
000070 6f 86 03 be 5d 76 98 be 79 c0 74 3e 72 ce 15 bd
       -0.12844251 -0.29777804 0.23901547 -0.036573835
000080 62 49 cb 3c d1 0f 47 be cd d1 04 bd b1 a5 1c 3e
       0.024815265 -0.19439627 -0.032426644 0.15297581
000090 16 53 fe bd 75 65 74 be f0 39 a6 be 9d 8e c7 ba
       -0.12418191 -0.23866828 -0.32466078 -0.0015224997
0000a0 64 e6 3b 3d 22 58 f0 bc d7 c5 d9 3c c2 70 cf 3d
       0.045874014 -0.0293389 0.026583595 0.10128929
0000b0 f4 1b be bd 2f fe b6 bd c8 ee 90 3d 98 09 d4 3d
       -0.092826754 -0.089352004 0.07076794 0.10353392
0000c0 16 5c 01 be d6 ed c2 bc f0 a3 c9 bd ba 0b 95 3e
       -0.12632784 -0.02379505 -0.09845722 0.2911051
0000d0 68 c2 97 ba 42 f3 b1 3a 9c bc 29 bd 5b e7 9f bd
       -0.0011578323 0.0013576525 -0.041439638 -0.078077994
0000e0 d7 46 0f be 2b 63 6a bd ff c8 01 be 33 c5 91 bd
       -0.13991867 -0.05722348 -0.1267433 -0.07117691
0000f0 c9 8b 22 3e 08 5c b4 3e 09 de ab bc d0 68 9f be
       0.15873636 0.35226464 -0.020979898 -0.31134653
000100 7f b3 cb bd 4c c6 7d be 28 91 84 bc 7f a8 12 3c
       -0.099463455 -0.24782676 -0.016182497 0.008951305
000110 0f 31 f3 3c 4c 8b 86 be e5 44 cf 3d 3e b3 24 3e
       0.029686479 -0.2627815 0.101205625 0.16084
000120 69 90 e8 bd cb 59 61 be 86 a1 01 be 3f ac 70 3d
       -0.11355669 -0.2200691 -0.12659273 0.058758017
000130 a6 36 cb 3d 0f c2 68 3d 42 ae 53 3e 5a 73 03 be
       0.09922533 0.056825694 0.20671943 -0.12836972
000140 3a 88 23 be 31 e8 2f 3d a1 8e 92 be 28 e5 51 be
       -0.15969935 0.042946044 -0.28624442 -0.20497572
000150 ec 56 75 3d b9 01 1d 3e dd 6f 97 3d 37 e5 5b 3e
       0.05989735 0.15332688 0.07394383 0.21474157
000160 de 63 12 3e a8 77 24 3c c9 18 40 3e 73 fa 92 3e
       0.14295909 0.010038294 0.18759455 0.28706703
000170 fc a1 11 be 87 8a b6 be ef 66 8c bc c0 b0 b4 bc
       -0.14221948 -0.35652563 -0.017138926 -0.022056937
000180 d7 43 03 be 16 b5 8c be 66 7f 9c bd 5e 02 37 3d
       -0.12818848 -0.27481908 -0.07641487 0.044679992
000190 cb 5f 86 bd d1 3b 90 3d 16 76 b8 bd 71 c8 ed be
       -0.0656124 0.07042659 -0.09006898 -0.46441987
0001a0 e9 f8 d0 3d c7 de ca 3e 96 2a c0 bd 19 5a bc be
       0.10203726 0.3962309 -0.093831226 -0.3678749
0001b0 47 ce db 3d 25 43 1a 3e 8f eb 82 be 8a 06 d3 be
       0.10732704 0.15064676 -0.25570342 -0.41215926
0001c0 e4 59 6a 3d e8 8d f7 bd ea e0 c2 bb f1 45 af 3d
       0.057214633 -0.12087613 -0.005947222 0.08558262
0001d0 8e d3 39 3e fa a9 c2 bd 1b 25 ab 3c 87 a4 c8 bc
       0.18147108 -0.09505077 0.020891717 -0.024492515
0001e0 81 01 17 3e d5 40 09 3e 78 95 ab 3d 81 a2 4d 3e
       0.14746667 0.13403638 0.08378118 0.20081522
0001f0 41 99 28 ba 63 8f e0 3d 06 e3 ae 3d 2f 29 bf 3b
       -0.0006431528 0.10964849 0.08539395 0.005833767
000200 31 75 11 3c e4 24 82 3c 24 dc 6e 3d 43 32 21 be
       0.008878038 0.015886731 0.05831541 -0.1574183
000210 32 1e fa bd 77 c1 57 3e 20 7a 59 3e ba 4f fb bd
       -0.122127905 0.21069895 0.21237993 -0.12271066
000220 5e 7c 3e bc 2f b5 d0 3d 3d a1 e1 3d 30 a4 77 3b
       -0.011626331 0.10190808 0.11017082 0.0037787072
000230 f8 26 94 3c 10 94 0d 3b 45 d7 23 3e 5a 58 63 be
       0.018084988 0.0021603145 0.16000088 -0.22201672
000240 9a f6 ba bd 17 e5 6f be ef bb fc bd 29 76 62 3d
       -0.09129067 -0.23427235 -0.12340533 0.055288468
000250 ad cd 83 be 47 db 11 bb 7e 91 a7 be 91 c8 90 3e
       -0.25742856 -0.0022255944 -0.3272819 0.2827802
000260 c4 af 0e be 96 50 a2 3e 25 c0 e8 3c f3 2d 29 be
       -0.13934237 0.31702107 0.028411934 -0.16521434
000270 62 5c 11 3e ad fd 57 3e 0c fe 03 bd 6a 10 59 bd
       0.14195397 0.21092863 -0.0322247 -0.05299417
000280 49 a6 4f be b4 30 8e bd 58 c8 8c be 85 49 c7 3d
       -0.20278277 -0.06942883 -0.274966 0.097308196
000290 ca 99 4c 3d 4a 1b 01 be 86 55 d1 bd 98 0f 33 be
       0.049951352 -0.12608066 -0.102213904 -0.17486417
0002a0 80 63 68 be bb 18 c1 bd 39 76 ca bd 36 bd 8d be
       -0.22694206 -0.09428545 -0.098858304 -0.2768342
0002b0 eb c5 12 3e 74 7d 69 3e 94 d4 9a be f5 ef 58 be
       0.14333312 0.22801763 -0.3024031 -0.21185286
0002c0 11 4f 8b 3d 67 5e 09 3e 3e f9 1a bd 22 01 4d 3b
       0.0680219 0.13414918 -0.037835352 0.0031281193
0002d0 d6 c0 9b bd a4 63 38 bc c1 8a de bd 23 64 79 be
       -0.0760514 -0.011254225 -0.10866309 -0.24354605
0002e0 ff 14 6e 3d 94 42 c9 3d d4 c9 a9 3c 94 1c a8 be
       0.058125492 0.09827152 0.020726122 -0.32834303
0002f0 af 1a 55 3e 4e 5b 43 3e e9 84 19 bd cd da 9d be
       0.2081096 0.19077799 -0.03748027 -0.30830994
000300 0c 0f 45 3d 1b d3 7f bc 4e 6a 31 be 3f 2d b1 be
       0.048110053 -0.015614296 -0.17325708 -0.34604833
000310 3f 8e 68 bd cb 19 13 3e db 59 b9 3d 01 67 73 3e
       -0.05677628 0.14365308 0.09050342 0.23769762
000320 2f 82 05 be f1 fa b9 3c ec 46 50 bc 54 5d 64 bd
       -0.13037942 0.022702666 -0.012712222 -0.055753067
000330 e3 1f 8f be 65 b6 ef be 5f c0 c6 bd 35 80 12 be
       -0.27954015 -0.46818843 -0.097046606 -0.1430672
000340 65 cd e4 bb 58 5c 42 3e 34 7d 8a be a0 81 f9 bd
       -0.0069824927 0.18980539 -0.27048647 -0.12182927
000350 d5 6c f1 bd f9 8e b2 3d aa 6d 1f bd df 86 74 3e
       -0.11788336 0.08718676 -0.038922943 0.23879574
000360 d6 93 2b be a7 51 6f 3d e0 69 38 be 63 bf af 3d
       -0.16755614 0.05842748 -0.18009138 0.08581426
000370 87 75 e5 be 37 84 0f bf 18 8a 9f bd 7e 3f 8b bd
       -0.4481623 -0.5606112 -0.07790011 -0.067992195
000380 f0 73 ea 3c e5 5b 63 be 53 a5 86 be 84 db a8 3d
       0.028619736 -0.22203024 -0.26298007 0.08244994
000390 29 7d 17 be ca f3 1e be 28 20 49 3d 20 26 97 3e
       -0.14793839 -0.15522686 0.049102932 0.29521275
0003a0 50 d2 bc bd c8 d4 ad bd e4 69 07 be 32 38 c2 bd
       -0.092198014 -0.084878504 -0.13223988 -0.09483375
0003b0 8e 76 31 be 84 6a bc bd 3b 7a b8 bb 48 bd b1 3b
       -0.17330381 -0.09200004 -0.0056298054 0.0054241754
0003c0 58 ce 63 bd 21 97 16 3e a8 fd 38 be 8c cc 44 be
       -0.055616707 0.14706089 -0.18065512 -0.19218653
0003d0 d1 ba 56 3d f6 d3 8e 3d 13 47 09 3e 6d f4 8d 3d
       0.052424256 0.06974022 0.13406019 0.06931386
0003e0 82 3e 5d 3e 91 9a e5 3d 46 45 11 3e 6b 52 84 3d
       0.21605876 0.11211122 0.14186582 0.064610325
0003f0 c8 a3 85 bc a0 ac e5 bd f4 8f 4f 3e d9 3d 73 bb
       -0.016313449 -0.11214566 0.20269758 -0.0037115721

model_2/dense_5/MatMul;model_2/dense_5/BiasAdd f4 [10]
000000 be b7 c8 3e e2 8c f8 3e 7b 14 d1 3e 1d a9 3c be
       0.39202684 0.48544985 0.40835938 -0.18423887
000010 18 db 14 bf 48 b3 1b 3d 85 35 fd bc 7c 5a c5 3c
       -0.5814681 0.038012773 -0.03090931 0.024090998
000020 3e a3 91 be db e9 24 bd
       -0.28444856 -0.040262084
